{"class_name": "Functional", "config": {"name": "model_1", "trainable": true, "layers": [{"module": "keras.layers", "class_name": "InputLayer", "config": {"batch_input_shape": [null, 300, 150, 1], "dtype": "float32", "sparse": false, "ragged": false, "name": "input_1"}, "registered_name": null, "name": "input_1", "inbound_nodes": []}, {"module": "keras.layers", "class_name": "InputLayer", "config": {"batch_input_shape": [null, 300, 150, 1], "dtype": "float32", "sparse": false, "ragged": false, "name": "input_2"}, "registered_name": null, "name": "input_2", "inbound_nodes": []}, {"module": "keras.src.engine.functional", "class_name": "Functional", "config": {"name": "model", "trainable": true, "layers": [{"module": "keras.layers", "class_name": "InputLayer", "config": {"batch_input_shape": [null, 300, 150, 1], "dtype": "float32", "sparse": false, "ragged": false, "name": "conv2d_input"}, "registered_name": null, "name": "conv2d_input", "inbound_nodes": []}, {"module": "keras.layers", "class_name": "Conv2D", "config": {"name": "conv2d", "trainable": true, "dtype": "float32", "batch_input_shape": [null, 300, 150, 1], "filters": 16, "kernel_size": [8, 8], "strides": [1, 1], "padding": "valid", "data_format": "channels_last", "dilation_rate": [1, 1], "groups": 1, "activation": "relu", "use_bias": true, "kernel_initializer": {"module": "keras.initializers", "class_name": "GlorotUniform", "config": {"seed": null}, "registered_name": null}, "bias_initializer": {"module": "keras.initializers", "class_name": "Zeros", "config": {}, "registered_name": null}, "kernel_regularizer": null, "bias_regularizer": null, "activity_regularizer": null, "kernel_constraint": null, "bias_constraint": null}, "registered_name": null, "build_config": {"input_shape": [null, 300, 150, 1]}, "name": "conv2d", "inbound_nodes": [[["conv2d_input", 0, 0, {}]]]}, {"module": "keras.layers", "class_name": "BatchNormalization", "config": {"name": "batch_normalization", "trainable": true, "dtype": "float32", "axis": [3], "momentum": 0.99, "epsilon": 0.001, "center": true, "scale": true, "beta_initializer": {"module": "keras.initializers", "class_name": "Zeros", "config": {}, "registered_name": null}, "gamma_initializer": {"module": "keras.initializers", "class_name": "Ones", "config": {}, "registered_name": null}, "moving_mean_initializer": {"module": "keras.initializers", "class_name": "Zeros", "config": {}, "registered_name": null}, "moving_variance_initializer": {"module": "keras.initializers", "class_name": "Ones", "config": {}, "registered_name": null}, "beta_regularizer": null, "gamma_regularizer": null, "beta_constraint": null, "gamma_constraint": null}, "registered_name": null, "build_config": {"input_shape": [null, 293, 143, 16]}, "name": "batch_normalization", "inbound_nodes": [[["conv2d", 0, 0, {}]]]}, {"module": "keras.layers", "class_name": "MaxPooling2D", "config": {"name": "max_pooling2d", "trainable": true, "dtype": "float32", "pool_size": [2, 2], "padding": "valid", "strides": [2, 2], "data_format": "channels_last"}, "registered_name": null, "build_config": {"input_shape": [null, 293, 143, 16]}, "name": "max_pooling2d", "inbound_nodes": [[["batch_normalization", 0, 0, {}]]]}, {"module": "keras.layers", "class_name": "Conv2D", "config": {"name": "conv2d_1", "trainable": true, "dtype": "float32", "filters": 32, "kernel_size": [4, 4], "strides": [1, 1], "padding": "valid", "data_format": "channels_last", "dilation_rate": [1, 1], "groups": 1, "activation": "relu", "use_bias": true, "kernel_initializer": {"module": "keras.initializers", "class_name": "GlorotUniform", "config": {"seed": null}, "registered_name": null}, "bias_initializer": {"module": "keras.initializers", "class_name": "Zeros", "config": {}, "registered_name": null}, "kernel_regularizer": null, "bias_regularizer": null, "activity_regularizer": null, "kernel_constraint": null, "bias_constraint": null}, "registered_name": null, "build_config": {"input_shape": [null, 146, 71, 16]}, "name": "conv2d_1", "inbound_nodes": [[["max_pooling2d", 0, 0, {}]]]}, {"module": "keras.layers", "class_name": "BatchNormalization", "config": {"name": "batch_normalization_1", "trainable": true, "dtype": "float32", "axis": [3], "momentum": 0.99, "epsilon": 0.001, "center": true, "scale": true, "beta_initializer": {"module": "keras.initializers", "class_name": "Zeros", "config": {}, "registered_name": null}, "gamma_initializer": {"module": "keras.initializers", "class_name": "Ones", "config": {}, "registered_name": null}, "moving_mean_initializer": {"module": "keras.initializers", "class_name": "Zeros", "config": {}, "registered_name": null}, "moving_variance_initializer": {"module": "keras.initializers", "class_name": "Ones", "config": {}, "registered_name": null}, "beta_regularizer": null, "gamma_regularizer": null, "beta_constraint": null, "gamma_constraint": null}, "registered_name": null, "build_config": {"input_shape": [null, 143, 68, 32]}, "name": "batch_normalization_1", "inbound_nodes": [[["conv2d_1", 0, 0, {}]]]}, {"module": "keras.layers", "class_name": "MaxPooling2D", "config": {"name": "max_pooling2d_1", "trainable": true, "dtype": "float32", "pool_size": [2, 2], "padding": "valid", "strides": [2, 2], "data_format": "channels_last"}, "registered_name": null, "build_config": {"input_shape": [null, 143, 68, 32]}, "name": "max_pooling2d_1", "inbound_nodes": [[["batch_normalization_1", 0, 0, {}]]]}, {"module": "keras.layers", "class_name": "Conv2D", "config": {"name": "conv2d_2", "trainable": true, "dtype": "float32", "filters": 64, "kernel_size": [2, 2], "strides": [1, 1], "padding": "valid", "data_format": "channels_last", "dilation_rate": [1, 1], "groups": 1, "activation": "relu", "use_bias": true, "kernel_initializer": {"module": "keras.initializers", "class_name": "GlorotUniform", "config": {"seed": null}, "registered_name": null}, "bias_initializer": {"module": "keras.initializers", "class_name": "Zeros", "config": {}, "registered_name": null}, "kernel_regularizer": null, "bias_regularizer": null, "activity_regularizer": null, "kernel_constraint": null, "bias_constraint": null}, "registered_name": null, "build_config": {"input_shape": [null, 71, 34, 32]}, "name": "conv2d_2", "inbound_nodes": [[["max_pooling2d_1", 0, 0, {}]]]}, {"module": "keras.layers", "class_name": "BatchNormalization", "config": {"name": "batch_normalization_2", "trainable": true, "dtype": "float32", "axis": [3], "momentum": 0.99, "epsilon": 0.001, "center": true, "scale": true, "beta_initializer": {"module": "keras.initializers", "class_name": "Zeros", "config": {}, "registered_name": null}, "gamma_initializer": {"module": "keras.initializers", "class_name": "Ones", "config": {}, "registered_name": null}, "moving_mean_initializer": {"module": "keras.initializers", "class_name": "Zeros", "config": {}, "registered_name": null}, "moving_variance_initializer": {"module": "keras.initializers", "class_name": "Ones", "config": {}, "registered_name": null}, "beta_regularizer": null, "gamma_regularizer": null, "beta_constraint": null, "gamma_constraint": null}, "registered_name": null, "build_config": {"input_shape": [null, 70, 33, 64]}, "name": "batch_normalization_2", "inbound_nodes": [[["conv2d_2", 0, 0, {}]]]}, {"module": "keras.layers", "class_name": "MaxPooling2D", "config": {"name": "max_pooling2d_2", "trainable": true, "dtype": "float32", "pool_size": [2, 2], "padding": "valid", "strides": [2, 2], "data_format": "channels_last"}, "registered_name": null, "build_config": {"input_shape": [null, 70, 33, 64]}, "name": "max_pooling2d_2", "inbound_nodes": [[["batch_normalization_2", 0, 0, {}]]]}, {"module": "keras.layers", "class_name": "Flatten", "config": {"name": "flatten", "trainable": true, "dtype": "float32", "data_format": "channels_last"}, "registered_name": null, "build_config": {"input_shape": [null, 35, 16, 64]}, "name": "flatten", "inbound_nodes": [[["max_pooling2d_2", 0, 0, {}]]]}, {"module": "keras.layers", "class_name": "Dense", "config": {"name": "dense", "trainable": true, "dtype": "float32", "units": 512, "activation": "relu", "use_bias": true, "kernel_initializer": {"module": "keras.initializers", "class_name": "GlorotUniform", "config": {"seed": null}, "registered_name": null}, "bias_initializer": {"module": "keras.initializers", "class_name": "Zeros", "config": {}, "registered_name": null}, "kernel_regularizer": null, "bias_regularizer": null, "activity_regularizer": null, "kernel_constraint": null, "bias_constraint": null}, "registered_name": null, "build_config": {"input_shape": [null, 35840]}, "name": "dense", "inbound_nodes": [[["flatten", 0, 0, {}]]]}, {"module": "keras.layers", "class_name": "Dense", "config": {"name": "dense_1", "trainable": true, "dtype": "float32", "units": 256, "activation": "relu", "use_bias": true, "kernel_initializer": {"module": "keras.initializers", "class_name": "GlorotUniform", "config": {"seed": null}, "registered_name": null}, "bias_initializer": {"module": "keras.initializers", "class_name": "Zeros", "config": {}, "registered_name": null}, "kernel_regularizer": null, "bias_regularizer": null, "activity_regularizer": null, "kernel_constraint": null, "bias_constraint": null}, "registered_name": null, "build_config": {"input_shape": [null, 512]}, "name": "dense_1", "inbound_nodes": [[["dense", 0, 0, {}]]]}], "input_layers": [["conv2d_input", 0, 0]], "output_layers": [["dense_1", 0, 0]]}, "registered_name": "Functional", "build_config": {"input_shape": [null, 300, 150, 1]}, "name": "model", "inbound_nodes": [[["input_1", 0, 0, {}]], [["input_2", 0, 0, {}]]]}, {"module": "keras.layers", "class_name": "Lambda", "config": {"name": "lambda", "trainable": true, "dtype": "float32", "function": ["4wEAAAAAAAAAAAAAAAcAAAADAAAA89QAAACXAHwALwIAAH0BfQJ0AQAAAAAAAAAAAABqAQAAAAAA\nAAAAdAEAAAAAAAAAAAAAagIAAAAAAAAAAHwBfAJ6CgAApgEAAKsBAAAAAAAAAABkAWQCrAOmAwAA\nqwMAAAAAAAAAAH0DdAEAAAAAAAAAAAAAagMAAAAAAAAAAHQBAAAAAAAAAAAAAGoEAAAAAAAAAAB8\nA3QBAAAAAAAAAAAAAGoFAAAAAAAAAACmAAAAqwAAAAAAAAAAAKYCAACrAgAAAAAAAAAApgEAAKsB\nAAAAAAAAAABTACkETukBAAAAVCkC2gRheGlz2ghrZWVwZGltcykG2gFL2gNzdW3aBnNxdWFyZdoE\nc3FydNoHbWF4aW11bdoHZXBzaWxvbikE2gV2ZWN0c9oBeNoBedoKc3VtX3NxdWFyZXMEAAAAICAg\nIPoxQzovRG9jdW1lbnRzL1RIRVNJUy90aGVzaXMvcGFzaWduL2FwcC90cmFpbmluZy5wedoSZXVj\nbGlkZWFuX2Rpc3RhbmNlchAAAAC8AAAAc08AAACAANgLEIFEgEGAcd0REpQVlXGUeKABoEGhBZF/\nlH+oUbgU0BE+0RE+1BE+gErdCwyMNpUhlCmYSq0BrAmpC6wL0RI01BI00Qs11As10AQ18wAAAAA=\n", null, null], "function_type": "lambda", "module": "app.training", "output_shape": ["4wEAAAAAAAAAAAAAAAIAAAADAAAA8yAAAACXAHwALwIAAH0BfQJ8AWQBGQAAAAAAAAAAAGQCZgJT\nACkDTukAAAAA6QEAAACpACkD2gZzaGFwZXPaBnNoYXBlMdoGc2hhcGUycwMAAAAgICD6MUM6L0Rv\nY3VtZW50cy9USEVTSVMvdGhlc2lzL3Bhc2lnbi9hcHAvdHJhaW5pbmcucHnaFmV1Y2xfZGlzdF9v\ndXRwdXRfc2hhcGVyCQAAAMEAAABzGQAAAIAA2BUbgU6ARohG2AwSkDGMSZBxiD7QBBnzAAAAAA==\n", null, null], "output_shape_type": "lambda", "output_shape_module": "app.training", "arguments": {}}, "registered_name": null, "build_config": {"input_shape": [[null, 256], [null, 256]]}, "name": "lambda", "inbound_nodes": [[["model", 1, 0, {}], ["model", 2, 0, {}]]]}], "input_layers": [["input_1", 0, 0], ["input_2", 0, 0]], "output_layers": [["lambda", 0, 0]]}, "keras_version": "2.15.0", "backend": "tensorflow"}